snake-v4-dqn.pt (torch_old, 3227 bytes, 6 tensors)

fc1.weight f4 [12, 8]
0.11610255 0.2115843 0.2507312 0.27109787 0.13379416 -0.10432626 0.2856957 0.09322938
0.24925599 -0.11841208 -0.33289102 -0.3444173 0.24784294 -0.09440309 0.24625 0.0041501224
0.16933295 -0.11829445 0.0305219 0.05421409 -0.12744807 0.1843867 0.3131884 -0.25419474
0.19969448 0.18146166 -0.055259615 0.03423041 -0.10972658 -0.2712614 0.20868441 -0.10464372
-0.29104725 0.05009675 0.06979829 -0.041861176 -0.11225851 -0.07765469 -0.031258166 0.11306301
0.26107916 0.08960566 0.20093313 0.15800324 0.015428811 0.17492804 0.16620901 0.10055685
0.19792566 0.19305828 0.1870949 0.1778647 -0.2167893 0.10220504 0.22828111 0.3045558
0.18148175 0.29288772 0.25089183 0.11147821 -0.13984801 0.26078704 -0.008685023 0.18014625
-0.3149862 0.114430875 0.30891934 0.1689898 -0.0067556202 0.1191898 0.007389635 0.21669593
0.28696808 -0.001534611 0.33363512 0.069557816 -0.31103274 -0.16859093 0.19765386 0.29900715
0.05769673 -0.124240935 -0.28017125 0.19251612 0.3480244 0.08873129 -0.183792 -0.13359772
0.11161262 -0.30866572 0.14121947 0.10435042 0.07367572 0.07645005 -0.22539747 0.23234245
00000000: 2cc7 ed3d 8ea9 583e d75f 803e 57cd 8a3e
00000010: 5601 093e 02a9 d5bd b546 923e 0cef be3d
00000020: f63c 7f3e 0882 f2bd b170 aabe 7757 b0be
00000030: 8aca 7d3e 6856 c1bd f628 7c3e c0fd 873b
00000040: 9e65 2d3e 5c44 f2bd 1009 fa3c 980f 5e3d
00000050: bf81 02be decf 3c3e 3b5a a03e d025 82be
00000060: b67c 4c3e 16d1 393e e857 62bd 3035 0c3d
00000070: 54b8 e0bd c6e2 8abe 5eb1 553e 724f d6bd
00000080: 2504 95be 4032 4d3d 68f2 8e3d a076 2bbd
00000090: cae7 e5bd 6c09 9fbd 9008 00bd 948d e73d
000000a0: 2bac 853e 2c83 b73d 6ac1 4d3e 9acb 213e
000000b0: 20c9 7c3c 5620 333e b232 2a3e c0f0 cd3d
000000c0: 06ad 4a3e 12b1 453e ce95 3f3e 2a22 363e
000000d0: 04fe 5dbe e050 d13d 86c2 693e bdee 9b3e
000000e0: 5ad6 393e 61f5 953e e574 803e b04e e43d
000000f0: 5134 0fbe e185 853e a04b 0ebc 4278 383e
00000100: df45 a1be bc5a ea3d ad2a 9e3e aa0b 2d3e
00000110: 405e ddbb c819 f43d c024 f23b 8ae5 5d3e
00000120: 7bed 923e 0025 c9ba 39d2 aa3e 5474 8e3d
00000130: af3f 9fbe 1aa3 2cbe c665 4a3e 7717 993e
00000140: 6853 6c3d 0872 febd 9b72 8fbe f222 453e
00000150: 4130 b23e c0b8 b53d f833 3cbe d7cd 08be
00000160: 2895 e43d 6f09 9ebe d69b 103e acb5 d53d
00000170: 4ce3 963d d891 9c3d 98ce 66be 2eeb 6d3e

fc1.bias f4 [12]
-0.27264798 0.26904127 0.059505492 0.08128387 0.3096715 0.02175647 0.32659462 0.095647514
0.101445526 0.028708577 0.2658963 0.20002112
00000000: 8498 8bbe c7bf 893e 08bc 733d 2878 a63d
00000010: 438d 9e3e a03a b23c 6937 a73e d8e2 c33d
00000020: acc2 cf3d 402e eb3c 8f23 883e 56d2 4c3e

fc2.weight f4 [24, 12]
-0.28280345 -0.07720365 -0.12709127 0.24509925 -0.23528136 -0.19439968 -0.27125534 0.11545622
0.12907448 -0.042887866 0.26142496 -0.24789673 -0.03754276 0.009366602 -0.12565012 0.12564364
-0.223169 -0.0851744 -0.26403275 0.14384046 0.2603737 0.17575622 -0.13631533 0.050551653
-0.050537437 -0.23828301 -0.15280992 -0.072607964 0.1767317 0.16615278 -0.12385723 0.179331
0.058194607 0.21042794 0.08201805 -0.18617824 -0.11260766 0.02692175 -0.10329969 -0.041537404
0.18980566 0.21828383 0.114914715 0.22827327 0.10009688 -0.09946188 -0.19535403 0.24614978
0.28135937 0.2626469 -0.002231121 0.0067403316 -0.028756112 0.172827 0.2365793 0.0863719
0.17475957 -0.04948695 -0.047786996 0.17622158 -0.113306314 0.05380851 -0.21969324 0.19444537
-0.17240626 0.11788893 -0.16524139 0.27799702 -0.28402314 0.19334897 0.22395575 0.18185964
0.120978385 -0.071503416 0.05256459 -0.24319364 -0.04523109 0.27940786 0.24110466 0.092297584
-0.17396107 -0.13501146 -0.089739144 -0.14367086 -0.122936174 -0.058960274 -0.28039956 0.17818075
-0.068485305 -0.0039241016 0.021120965 -0.0693299 0.12763014 0.27285177 0.13862562 -0.26034573
0.22291464 -0.056832775 -0.051638097 0.14037889 -0.2077079 -0.09108943 -0.2663954 0.24277037
-0.0028734207 -0.22754239 -0.25054553 0.2527516 -0.15297517 0.057625175 0.19556054 -0.19599319
0.025545597 -0.0012349486 0.091637224 -0.16765356 0.09587601 -0.06338537 0.07209259 -0.052050605
0.1373868 0.026854575 0.07084146 -0.1946685 -0.2703475 0.25930005 -0.17010838 0.11281693
0.108915806 -0.012737423 -0.03333378 0.09205976 0.1958018 -0.21554056 -0.12183465 0.013847649
-0.19553474 0.18959457 0.23154616 0.06854093 -0.08012377 -0.121847734 0.119672745 -0.029295921
0.11504364 -0.27024806 -0.06929873 0.2380417 -0.051036328 0.25361246 0.22734714 0.25949126
0.13819757 0.14218307 0.05646521 0.17966864 -0.059428692 -0.013783336 -0.12468389 -0.14659534
0.17482951 -0.21019931 -0.1355502 0.2636845 0.20084351 -0.09136656 0.020870298 -0.12121034
-0.11344808 0.2142312 -0.17974693 -0.27111736 -0.057943 0.034122348 -0.2283472 0.055243373
0.110713124 0.07200897 -0.1296132 0.16069955 -0.083762676 -0.05721189 0.28474754 0.24797738
0.25268131 0.2531106 0.28583968 -0.19234009 -0.03394544 0.0898231 0.28525305 0.22960639
0.21323264 -0.08918984 0.2827751 0.0956696 -0.07947692 -0.17901978 0.013835967 -0.06985493
-0.2272985 0.18956268 0.09605482 0.18327782 -0.048190594 -0.28607297 0.21617109 -0.20028275
-0.21249382 -0.020369262 0.23894298 0.015309125 -0.13311498 0.16977063 0.21488959 -0.0982531
-0.19718441 0.05853784 -0.19953522 0.22543472 0.04932639 0.15239432 0.14244959 0.112802655
-0.043471396 -0.243716 0.13792324 0.23098856 0.1909858 0.041545272 0.0154364705 -0.09599128
0.18099195 0.15492669 0.28733826 -0.08813234 -0.24575412 0.1351614 -0.25437474 -0.025473624
-0.23134695 -0.08529581 0.28357977 0.13378304 -0.27901042 0.14728513 0.058463663 -0.053651005
-0.26041344 0.010051787 0.27918434 -0.19638401 0.17901465 0.18327507 0.11899656 -0.040973797
00000000: 9dcb 90be f21c 9ebd 3724 02be 4cfb 7a3e
00000010: 99ed 70be b610 47be fbe1 8abe 5074 ec3d
00000020: 1a2c 043e 30ab 2fbd 7ed9 853e a4d8 7dbe
00000030: 70c6 19bd 6076 193c 6daa 00be baa8 003e
00000040: 6a86 64be ea6f aebd 4d2f 87be ea4a 133e
00000050: b44f 853e 70f9 333e 3f96 0bbe 400f 4f3d
00000060: 5800 4fbd 7600 74be 347a 1cbe 7cb3 94bd
00000070: 28f9 343e f423 2a3e dca8 fdbd 8ca2 373e
00000080: 785d 6e3d 6c7a 573e 14f9 a73d 82a5 3ebe
00000090: d89e e6bd 008b dc3c ca8e d3bd 2023 2abd
000000a0: 6a5c 423e cc85 5f3e 6858 eb3d 78c0 693e
000000b0: 98ff cc3d acb2 cbbd e30a 48be b00e 7c3e
000000c0: 560e 903e a879 863e 0038 12bb 00de dc3b
000000d0: f091 ebbc 90f9 303e d841 723e c0e3 b03d
000000e0: 2cf4 323e d4b2 4abd 4cbc 43bd 6e73 343e
000000f0: 240d e8bd 5066 5c3d 44f7 60be b01c 473e
00000100: 448b 30be c06f f13d 0a35 29be a055 8e3e
00000110: 7b6b 91be 46fd 453e a854 653e 6a39 3a3e
00000120: 84c3 f73d 6270 92bd f84d 573d c107 79be
00000130: 3c44 39bd 8c0e 8f3e 24e4 763e 8406 bd3d
00000140: da22 32be 7240 0abe 28c9 b7bd 741e 13be
00000150: f6c5 fbbd 5480 71bd 8890 8fbe 0475 363e
00000160: 0642 8cbd c095 80bb e005 ad3c d6fc 8dbd
00000170: 7ab1 023e 3ab3 8b3e e0f3 0d3e 094c 85be
00000180: bc43 643e 7cc9 68bd 7882 53bd 7cbf 0f3e
00000190: 61b1 54be 188d babd fa64 88be cc98 783e
000001a0: 0050 3cbb df00 69be 8147 80be a868 813e
000001b0: 86a5 1cbe 6008 6c3d 0641 483e 70b2 48be
000001c0: 0045 d13c 00de a1ba 4cac bb3d 60ad 2bbe
000001d0: a45a c43d 30d0 81bd 48a5 933d 0433 55bd
000001e0: 20af 0c3e 20fe db3c 5415 913d 2e57 47be
000001f0: fd6a 8abe fac2 843e e430 2ebe 900c e73d
00000200: 400f df3d a0b0 50bc 0089 08bd d489 bc3d
00000210: 4480 483e aab6 5cbe 7284 f9bd 40e1 623c
00000220: 423a 48be 1425 423e 701a 6d3e 305f 8c3d
00000230: ee17 a4bd 4e8b f9bd fc16 f53d 00fe efbc
00000240: 009c eb3d f45d 8abe 7eec 8dbd 34c1 733e
00000250: 780b 51bd 7ed9 813e b0cd 683e 0adc 843e
00000260: aa83 0d3e 7098 113e 1048 673d 0efb 373e
00000270: 806b 73bd 80d3 61bc 445a ffbd 171d 16be
00000280: 8206 333e 7d3e 57be accd 0abe a801 873e
00000290: eca9 4d3e 641e bbbd 30f8 aa3c 203d f8bd
000002a0: 7857 e8bd 6c5f 5b3e 940f 38be e5cf 8abe
000002b0: a455 6dbd e0c3 0b3d d9d3 69be e046 623d
000002c0: 90bd e23d 7079 933d 53b9 04be 6c8e 243e
000002d0: c48b abbd 0457 6abd 6eca 913e c8ed 7d3e
000002e0: 725f 813e b697 813e 9459 923e cdf4 44be
000002f0: 600a 0bbd 2cf5 b73d b00c 923e f01d 6b3e
00000300: a859 5a3e 2aa9 b6bd e6c7 903e 6cee c33d
00000310: ccc4 a2bd f650 37be 40b0 623c 1a10 8fbd
00000320: f0c0 68be b81c 423e 64b8 c43d 2ead 3b3e
00000330: 8063 45bd 2878 92be f45b 5d3e ec16 4dbe
00000340: fb97 59be 70dd a6bc 78ad 743e 20d3 7a3c
00000350: 4b4f 08be 5ad8 2d3e 040c 5c3e ec38 c9bd
00000360: b6ea 49be 60c5 6f3d f652 4cbe 5cd8 663e
00000370: 780a 4a3d 420d 1c3e 4ede 113e 1405 e73d
00000380: 100f 32bd b090 79be c03b 0d3e 4488 6c3e
00000390: c891 433e 602b 2a3d 40e9 7c3c 1497 c4bd
000003a0: f455 393e 1aa5 1e3e 001e 933e ba7e b4bd
000003b0: f8a6 7bbe c067 0a3e 683d 82be 10ae d0bc
000003c0: 37e6 6cbe 92af aebd 5e31 913e 6cfe 083e
000003d0: 74da 8ebe ead1 163e 9877 6f3d 28c1 5bbd
000003e0: e954 85be 40b0 243c 40f1 8e3e e418 49be
000003f0: 9e4f 373e 76ac 3b3e 78b4 f33d 24d4 27bd

fc2.bias f4 [24]
0.28540403 0.04538706 0.026121885 -0.0622022 -0.11819117 -0.016387045 0.23651886 0.27896452
0.27470934 0.16184646 -0.23517698 -0.08583148 -0.23397884 0.27531886 0.14703968 -0.13667268
0.22464436 -0.25415435 -0.10661699 -0.11934103 0.24270117 0.021583617 0.21254253 0.22596937
00000000: 7a20 923e c8e7 393d 90fd d53c bcc7 7ebd
00000010: 360e f2bd 203e 86bc 0032 723e 70d4 8e3e
00000020: b4a6 8c3e 14bb 253e 3cd2 70be 6ac8 afbd
00000030: 2698 6fbe 98f6 8c3e 9291 163e ecf3 0bbe
00000040: 2c09 663e 8520 82be 025a dabd 1269 f4bd
00000050: a886 783e 20d0 b03c c0a4 593e 8464 673e

fc3.weight f4 [5, 24]
0.021018863 0.1344957 0.18871686 -0.07112619 -0.06588723 -0.18561193 -0.16512956 0.10371333
0.18625814 0.10432184 0.0966025 -0.041055426 0.14247158 0.09207311 -0.0005053133 0.03743267
-0.11326259 0.031528175 0.049622387 0.10923669 -0.11829488 -0.02467604 0.09147692 0.17288053
-0.039242923 -0.18657355 -0.06431116 0.044519693 0.168012 -0.06256823 -0.09883638 -0.15608005
-0.12482847 0.03252247 0.17050302 -0.15843344 0.18310413 0.0361093 0.20345342 0.05458969
0.12056914 0.18298438 0.18273619 -0.040452242 0.12868136 0.14977878 -0.17237061 0.16068196
-0.16455227 0.0832057 0.0368174 0.080964535 -0.026765868 0.18574381 0.19301176 -0.035237357
0.19872507 0.082994014 0.053313702 0.043959185 0.036010876 -0.1124598 -0.12312615 -0.18923064
-0.119669236 0.19770393 -0.1846495 0.045676798 -0.10123323 -0.16324633 -0.001551792 -0.14815778
-0.15359436 0.090456575 0.15251175 0.19900921 -0.052126333 -0.10008145 -0.005839899 -0.09539876
-0.13509125 -0.19301113 0.1646901 -0.022793353 -0.14236426 -0.13114357 0.14549446 0.01868394
0.018759161 0.11820313 -0.18701118 -0.11977861 -0.0015948713 -0.18739149 0.16667521 0.08314392
-0.09774018 0.13976488 0.079399645 0.1750476 0.15643623 -0.05519481 0.02673933 -0.12394076
-0.024707526 0.10532373 -0.1264919 -0.08020485 -0.119232886 0.029415429 -0.07307577 -0.15314823
0.065977395 0.07445434 0.14526668 -0.0847128 0.008332521 0.008551344 0.14726144 0.03332898
00000000: c02f ac3c 3eb9 093e fe3e 413e 9caa 91bd
00000010: e2ef 86bd 0e11 3ebe b917 29be a867 d43d
00000020: 74ba 3e3e b0a6 d53d 88d7 c53d bc29 28bd
00000030: 12e4 113e d490 bc3d 0077 04ba 0053 193d
00000040: 37f6 e7bd b023 013d d840 4b3d 7cb7 df3d
00000050: 9644 f2bd 6825 cabc 4058 bb3d 9807 313e
00000060: 30bd 20bd 230d 3fbe 92b5 83bd 485a 363d
00000070: 560b 2c3e c623 80bd ba6a cabd 73d3 1fbe
00000080: 12a6 ffbd 4836 053d 5898 2e3e 603c 22be
00000090: a67f 3b3e 58e7 133d 1856 503e 7099 5f3d
000000a0: f4ec f63d 4260 3b3e 321f 3b3e 40b1 25bd
000000b0: 0cc5 033e 9c5f 193e ec81 30be d089 243e
000000c0: 6480 28be c067 aa3d d8cd 163d bcd0 a53d
000000d0: 1844 dbbc a033 3e3e e0a4 453e 0c55 10bd
000000e0: 967e 4b3e c4f8 a93d 785f 5a3d 8c0e 343d
000000f0: 2480 133d 5351 e6bd 9029 fcbd adc5 41be
00000100: 2515 f5bd e672 4a3e c214 3dbe 9817 3b3d
00000110: 5e53 cfbd 0c2a 27be 8065 cbba acb6 17be
00000120: d747 1dbe 4c41 b93d 0a2c 1c3e 12c9 4b3e
00000130: 6c82 55bd 81f7 ccbd a05c bfbb 6d60 c3bd
00000140: 5c55 0abe b6a4 45be 86a4 283e 20b9 babc
00000150: f0c7 11be 804a 06be 80fc 143e 100f 993c
00000160: d0ac 993c 7c14 f23d dc7f 3fbe 7d4e f5bd
00000170: 000b d1ba 8ee3 3fbe e8ac 2a3e 5c47 aa3d
00000180: 012c c8bd 861e 0f3e 489c a23d ae3f 333e
00000190: d230 203e f413 62bd 700c db3c a7d4 fdbd
000001a0: 7067 cabc f8b3 d73d 1887 01be 7142 a4bd
000001b0: 5f30 f4bd a0f8 f03c c0a8 95bd e4d2 1cbe
000001c0: 281f 873d 847b 983d cac0 143e e87d adbd
000001d0: 2085 083c f01a 0c3c b4cb 163e f883 083d

fc3.bias f4 [5]
0.19712132 -0.0116138905 0.06773415 -0.010647312 0.13511929
00000000: 2cda 493e 3048 3ebc 34b8 8a3d 1072 2ebc
00000010: b65c 0a3e
