snake-v4-dqn.pt (torch_old, 3284 bytes, 6 tensors)

fc1.weight f4 [12, 8]
0	0xbee9ac41	-0.45639232
1	0xbea06feb	-0.31335387
2	0x3ebd5cef	0.36984965
3	0x3ed6bf88	0.41943002
4	0x3ec86b8e	0.39144558
5	0x3f743d25	0.954058
6	0xbd86b4bf	-0.06577443
7	0xbf6710f1	-0.90260226
8	0x3cdb7340	0.026788354
9	0xbe135524	-0.14387947
10	0x3e5aff02	0.2138634
11	0xbe86f7fc	-0.26361072
12	0xbea22d55	-0.3167521
13	0x3ea258d5	0.31708398
14	0xbe9a3fc6	-0.3012678
15	0xbe091d71	-0.13390137
16	0xbe93fcac	-0.2890371
17	0xbe119a2f	-0.14218973
18	0xbe8e3c6b	-0.2778047
19	0xbe1f7bea	-0.15574613
20	0x3e8df74b	0.27727732
21	0xbdd7231c	-0.105047435
22	0x3e581d6a	0.2110497
23	0x3e280c02	0.1641083
24	0x3f917172	1.1362746
25	0xbe84c4b7	-0.25931332
26	0xbf11fe62	-0.5702878
27	0x3f58856c	0.84578586
28	0x3efad30d	0.48989144
29	0x3ed37911	0.41303304
30	0x3e470905	0.19437034
31	0xbeb0a633	-0.345018
32	0xbf91a9ec	-1.1379981
33	0x3e58793c	0.21139997
34	0x3f46db91	0.7767878
35	0xbea3f715	-0.32024446
36	0xbdb5d04d	-0.08877621
37	0xbeb33d66	-0.3500778
38	0x3d96c134	0.07361069
39	0x3f2fecb6	0.6872057
40	0xbdb2b68b	-0.087262236
41	0xbefe2b40	-0.49642372
42	0x3e4ed295	0.20197518
43	0x3fa48197	1.2852048
44	0xbf311caa	-0.6918436
45	0xba41386f	-0.0007370775
46	0x3fa6a6a7	1.3019608
47	0x3e0f4131	0.13989712
48	0xbff098a9	-1.8796588
49	0x3f1adcdd	0.6049326
50	0x3f62bca7	0.8856911
51	0x3d4fd136	0.05073663
52	0x3edcbf25	0.43114582
53	0xbe41d2a7	-0.18928014
54	0xbe6187fc	-0.2202453
55	0x3e19e6c6	0.1502944
56	0xbef705f6	-0.48246735
57	0xbfae929e	-1.3638494
58	0x3eb68186	0.35645694
59	0x3f39856e	0.7246922
60	0x3f00ec7b	0.5036084
61	0x3e4346a6	0.19069919
62	0x3c989489	0.018625515
63	0xbe15f7e7	-0.14645348
64	0x3f1e24d4	0.61774945
65	0x3fc44e00	1.5336304
66	0x3ec8d0f7	0.39221928
67	0xbf2cd93b	-0.6751897
68	0x3f304f08	0.6887059
69	0x3f079d9c	0.5297487
70	0xbcae87df	-0.021305023
71	0x3f07e558	0.53084326
72	0xbeb1852c	-0.34671915
73	0x3f26a138	0.6508975
74	0x3f3161e4	0.69289994
75	0xbf667812	-0.9002696
76	0x3f0a4501	0.5401154
77	0xbf7b6143	-0.98195285
78	0xbda3cfad	-0.079985954
79	0x3f43fda9	0.7655893
80	0x3e61b83e	0.22042939
81	0xbdf239ee	-0.118274555
82	0xbe6d041a	-0.23146096
83	0xbe5de632	-0.21669844
84	0xbdad414c	-0.0845972
85	0xbe63302c	-0.22186345
86	0x3e48e076	0.19616875
87	0xbe495e8f	-0.19664977
88	0x3ea13750	0.31487513
89	0x3d8caa43	0.06868412
90	0x3daae021	0.083435304
91	0x3eeef873	0.46673927
92	0x3f405dc5	0.7514308
93	0x3f54a399	0.8306213
94	0xbf11108b	-0.5666587
95	0xbf1d2e18	-0.6139846

fc1.bias f4 [12]
0	0x3e83740e	0.2567448
1	0xbe4fb087	-0.20282184
2	0xbe1e6b50	-0.15470624
3	0x3cd0ffdc	0.025512628
4	0x3f16ab5e	0.58855236
5	0x3d968ca5	0.073510446
6	0x3d180e35	0.037122924
7	0x3ea54a8f	0.32283446
8	0x3e3a02cc	0.1816513
9	0x3d9e5d0a	0.077325895
10	0xbe207cc0	-0.15672588
11	0x3e9d29a6	0.30695838

fc2.weight f4 [24, 12]
0	0xbee867f7	-0.4539182
1	0xbe1d4a18	-0.15360296
2	0xbc84a910	-0.016193897
3	0x3ed10ccc	0.40830076
4	0xbe766d43	-0.24065118
5	0xbd6b1e02	-0.057401665
6	0x3f406735	0.7515748
7	0xbd3939bb	-0.04522107
8	0x3e593e37	0.2121514
9	0xbf14b681	-0.5809098
10	0x3dba2d14	0.09090629
11	0x3f26815e	0.6504115
12	0xbe9eefd0	-0.31042337
13	0x3e6d00bc	0.23144811
14	0xbc8f49d0	-0.017491251
15	0x3f36d822	0.7142354
16	0x3f8cd4c8	1.1002436
17	0x3f355b47	0.70842403
18	0x3dcb7578	0.09934515
19	0x3ea56330	0.32302237
20	0xbf203b26	-0.62590253
21	0x3f23e624	0.6402304
22	0x3ce68d90	0.028143674
23	0x3ddce1fd	0.10785291
24	0x3f603e83	0.87595385
25	0x3e55990a	0.20859161
26	0xbc85c340	-0.016328454
27	0xbd830b9f	-0.06398701
28	0x3ccd7724	0.025081225
29	0x3d2f9a45	0.042871732
30	0x3f193213	0.5984203
31	0x3ed0e00f	0.40795943
32	0xbe111a59	-0.14170207
33	0xc000055e	-2.0003276
34	0xbcf8ec20	-0.03038603
35	0x3f13a2ac	0.5767009
36	0xbfd92eed	-1.6967446
37	0xbe35b503	-0.17744832
38	0xbe8fd58e	-0.28092617
39	0x3f0315b6	0.51205003
40	0xbf22374d	-0.6336563
41	0x3e83542a	0.2565015
42	0xbf445734	-0.7669556
43	0xbe101cfb	-0.14073555
44	0x3ec5a9b5	0.3860604
45	0xbe6e34e2	-0.2326236
46	0xbe807dfa	-0.25096112
47	0xbcbaf1c7	-0.022820367
48	0xbe4afb5e	-0.19822451
49	0x3dd3a84c	0.103348345
50	0x3de5a510	0.11213124
51	0xbe606c76	-0.21916375
52	0x3efe226d	0.4963564
53	0xbec93173	-0.3929554
54	0xbf252def	-0.64523214
55	0x3e433e87	0.19066821
56	0x3eb663a3	0.35622892
57	0x3d84fecc	0.06493911
58	0xbe8c9edf	-0.2746496
59	0x3ecb3ed4	0.39696372
60	0x3f154a32	0.5831634
61	0x3e6dfec4	0.23241717
62	0xbdd96944	-0.10615781
63	0x3db63e3d	0.0889859
64	0x3da8dfe1	0.082458265
65	0x3e9b6f41	0.30358317
66	0xbf8206d9	-1.015834
67	0xbf2f59f2	-0.6849662
68	0x3db07b6f	0.08617293
69	0xbee9fa3b	-0.45698723
70	0x3e9228d8	0.28546786
71	0xbc25f0d8	-0.010128222
72	0x3f334055	0.7002004
73	0xbdaf330a	-0.08554657
74	0x3e09c204	0.13452917
75	0x3e777ad4	0.24167949
76	0x3f245ea0	0.64206886
77	0x3f3bbd40	0.7333565
78	0xbda745de	-0.08167623
79	0xbeeea884	-0.46612942
80	0xbec446d4	-0.38335288
81	0xbffaf8c8	-1.9607172
82	0x3dcc5ab0	0.09978235
83	0x3e1643dc	0.14674324
84	0xbe8012a2	-0.25014216
85	0x3e661a14	0.22470886
86	0xbdf419aa	-0.119189575
87	0xbe886551	-0.26639798
88	0xbe80fe26	-0.251939
89	0xbe5bb09e	-0.21454093
90	0xbe627cac	-0.22117871
91	0x3d4999e0	0.049219012
92	0xbd98c88a	-0.07460125
93	0xbd6672d8	-0.056261867
94	0xbc244040	-0.010025084
95	0x3dabeecc	0.08395156
96	0xbfa4a13b	-1.2861704
97	0x3e337e64	0.17528683
98	0x3aa27600	0.0012394786
99	0x3f95d47b	1.1705469
100	0x3eb5b85c	0.35492218
101	0x3eb6e7bf	0.35723683
102	0x3f156502	0.5835725
103	0xbf875a63	-1.0574459
104	0xbd26d6d5	-0.040732224
105	0xbec831d5	-0.3910052
106	0x3e8ca336	0.2746827
107	0x3e1d0491	0.15333773
108	0x3cd63145	0.02614654
109	0x3e8cc894	0.2749678
110	0xbe27b832	-0.16378859
111	0xbe3f0f30	-0.18658137
112	0xbebe7e6e	-0.37205833
113	0xbf084951	-0.5323687
114	0xbea1b86a	-0.3158601
115	0x3f8818bf	1.0632552
116	0x3e79a6f8	0.243801
117	0x3f26a2a4	0.6509192
118	0x3e3a138e	0.18171522
119	0x3e9afaea	0.30269557
120	0xc00c7728	-2.1947727
121	0xbe380a66	-0.17972717
122	0x3deb8374	0.11499682
123	0x3e3b6d88	0.18303502
124	0x3ea8e020	0.32983494
125	0xbf18622b	-0.5952479
126	0x3f8f4d84	1.1195531
127	0xbf35c332	-0.7100097
128	0x3e359bcd	0.17735215
129	0x3f5cba1b	0.86221474
130	0xbc698520	-0.014252931
131	0xbf454d41	-0.77071005
132	0xbeec710b	-0.46179995
133	0x3e847ebe	0.25877947
134	0x3e9213bc	0.2853068
135	0xbe127eeb	-0.14306228
136	0xbf0a8e73	-0.5412361
137	0xbfa61248	-1.2974329
138	0x3f0ade10	0.5424509
139	0x3fcad362	1.5845759
140	0x3f2a347c	0.66486335
141	0x3ed2445a	0.41067773
142	0x3e822bfe	0.25424188
143	0x3e521d7c	0.2051906
144	0xbf3d51f7	-0.73953193
145	0xbdcec318	-0.10095805
146	0xbe3635f3	-0.17794017
147	0xbfb40220	-1.4063148
148	0x3ec9c4c4	0.39407933
149	0x3e829d75	0.25510755
150	0x3fa87a08	1.3162241
151	0x3f17a7d6	0.5924047
152	0xbf11b408	-0.5691533
153	0x3e1a64ad	0.15077467
154	0xbd2de8ec	-0.04245846
155	0xbf9253bf	-1.1431807
156	0x3ddd7726	0.108137414
157	0x3dc04ec4	0.09390023
158	0xbe76ab20	-0.24088717
159	0xbe631412	-0.22175625
160	0x3f4bc0d6	0.7959112
161	0x3ed4e44d	0.4158043
162	0x3f2ae6c5	0.66758376
163	0x3eb462ca	0.3523162
164	0x3e7db4d1	0.24776007
165	0xbf14ebb8	-0.5817218
166	0xbdfd4080	-0.12365818
167	0x3e25cebd	0.16192146
168	0x3fb6aa3d	1.4270703
169	0xbe1efb19	-0.15525474
170	0xbe81567d	-0.25261298
171	0x3f045033	0.51684874
172	0xbfd26f25	-1.6440169
173	0x3f2c125b	0.6721551
174	0xc0379e19	-2.8690245
175	0x3fb9ebd3	1.4525093
176	0xbec9c122	-0.3940516
177	0xbfb22840	-1.3918533
178	0x3e78cec4	0.24297625
179	0x3eade5f2	0.33964497
180	0xbead93be	-0.3390178
181	0xbe3c7b88	-0.18406498
182	0xbceb3590	-0.028712064
183	0xbed245c2	-0.41068846
184	0xbf5eb67e	-0.8699721
185	0xbff3ed83	-1.9056858
186	0xbda4091a	-0.080095485
187	0x3f5dd546	0.86653554
188	0x3ec7d97b	0.39033112
189	0x3f64b3f7	0.89337105
190	0x3e43e1e8	0.19129145
191	0xbe9428ff	-0.28937528
192	0x3e7e34cb	0.24824826
193	0xbe091254	-0.13385898
194	0x3d2cc3d8	0.04217896
195	0x3ed160a0	0.40894032
196	0x3f446e32	0.76730645
197	0xbf67d782	-0.90563214
198	0x3fb9a298	1.4502745
199	0xbdb137c8	-0.086532176
200	0xbe84019b	-0.25782475
201	0xbea5d5df	-0.32389733
202	0x3e8b795a	0.2724102
203	0x3f176cf5	0.5915063
204	0x3f027e79	0.5097423
205	0xbe488168	-0.19580615
206	0x3e8334f2	0.25626332
207	0xbf50a57d	-0.81502515
208	0xbe7c566b	-0.24642341
209	0x3e70958b	0.23494546
210	0xbf471c7e	-0.7777785
211	0x3f6ee05a	0.93311083
212	0x3ef3164b	0.47477946
213	0x3f00d35e	0.5032252
214	0x3e5a0648	0.21291459
215	0x3dbe1aca	0.09282453
216	0xbfdb69a6	-1.7141616
217	0x3e1d227c	0.15345186
218	0xbe4c22ca	-0.19935146
219	0xbeb84086	-0.35986727
220	0x3f81ce22	1.0141032
221	0x3f171dce	0.59029853
222	0x3e5a16c2	0.21297744
223	0x3e0e11de	0.13874003
224	0xbf18837d	-0.59575635
225	0x3e0d74e0	0.13814116
226	0xbc606140	-0.013695061
227	0xbfb21661	-1.391308
228	0xbdd9e697	-0.10639685
229	0x3e521a2c	0.20517796
230	0x3dacd768	0.08439523
231	0xbec61645	-0.38688865
232	0x3e9e1ac2	0.3087979
233	0xbf477156	-0.7790731
234	0x3e877079	0.26452997
235	0x3f936fa3	1.1518444
236	0x3ca0ae13	0.019614255
237	0x3ed0ecef	0.40805766
238	0x3dc17488	0.09446055
239	0x3f415346	0.7551769
240	0x3eeb1442	0.45913893
241	0x3e8a92fa	0.2706526
242	0x3e5765e2	0.21034959
243	0x3d994a8b	0.07484921
244	0x3e6dd0d2	0.2322419
245	0x3ead914c	0.33899915
246	0xc017e4d2	-2.373341
247	0x3dbf9b21	0.0935576
248	0x3ca3427c	0.019929163
249	0xbe0b0f0f	-0.13579963
250	0xbe6670de	-0.22503993
251	0x3e9e8b36	0.30965585
252	0x3f05721a	0.5212723
253	0xbe31542a	-0.17317262
254	0x3d3f8028	0.04675308
255	0xbe9c5ec1	-0.30541041

fc2.bias f4 [24]
0	0xbd006dfa	-0.03135488
1	0xbe3e66fc	-0.18593973
2	0x3d33535b	0.043780666
3	0x3f39c760	0.7256985
4	0xbde5dd8f	-0.112238996
5	0xbd72d9c5	-0.059289712
6	0x3e431aea	0.19053236
7	0x3d47e738	0.04880449
8	0x3e50bb63	0.20383982
9	0xbec78e1d	-0.3897561
10	0x3d23421e	0.039857976
11	0x3e4cc5be	0.19997308
12	0xbedcdf1b	-0.43138966
13	0xbe2c3bb6	-0.16819653
14	0xbe971cf9	-0.29514292
15	0xbd738db8	-0.059461325
16	0xbdce755d	-0.10080979
17	0x3ea9f079	0.3319128
18	0x3dbf0a0a	0.09328087
19	0x3bea90cd	0.007158375
20	0x3d3f7b38	0.04674837
21	0x3da93561	0.08262134
22	0x3f036283	0.5132219
23	0xbe4737c2	-0.19454864

fc3.weight f4 [5, 24]
0	0x3f1ba3c0	0.6079674
1	0x3f0cb6da	0.5496651
2	0xbfb6111d	-1.4223973
3	0x3f951072	1.1645644
4	0xbe6c0b59	-0.23051204
5	0xbf4ca61f	-0.7994098
6	0xbf0ecd88	-0.55782366
7	0x3d2fa7c8	0.042884618
8	0x3f24a9c6	0.64321554
9	0x3edcb13f	0.43103978
10	0x3ebc6984	0.36799252
11	0xbef0a4c8	-0.47000718
12	0x3ef95464	0.48697197
13	0xbf159d6a	-0.5844332
14	0xc022c218	-2.5430965
15	0x3f33d751	0.7025042
16	0x3f95baf9	1.1697685
17	0xbf4d69d7	-0.80239624
18	0x3edef667	0.43547365
19	0x3e6de9c6	0.23233709
20	0xbf0a05e6	-0.5391525
21	0xc03bfc52	-2.9372754
22	0xbd4386b2	-0.047735877
23	0x3e982b5d	0.29720584
24	0xbf165172	-0.58718026
25	0xbe066bc8	-0.13127053
26	0xbe08c0f0	-0.1335485
27	0xbf93f0ad	-1.1557823
28	0x3f07de5e	0.5307368
29	0xbb9ad7af	-0.0047254185
30	0xbf8cdee8	-1.1005526
31	0x3df99738	0.12187046
32	0xbeb11a69	-0.34590462
33	0x3f2c7fff	0.67382807
34	0xbf36513b	-0.712177
35	0x3ee1391c	0.43988883
36	0x3e59f3e4	0.21284443
37	0x3e962fb7	0.2933328
38	0x3f8ebd03	1.1151432
39	0xbf6d45d7	-0.9268469
40	0xbfd08bb3	-1.6292633
41	0x3f8ce4c7	1.1007317
42	0xbf11229d	-0.5669344
43	0x3f1a7b74	0.60344625
44	0x3f4fbdc1	0.81148916
45	0x3feb752f	1.8395137
46	0x3f505da9	0.81392914
47	0x3ee04df5	0.43809476
48	0x3e28b985	0.1647702
49	0x3e7cde04	0.24694067
50	0x3e6bd1f1	0.23029305
51	0xbf7125cd	-0.94198304
52	0xbea8e910	-0.32990313
53	0xbd837688	-0.064190924
54	0x3e9f803d	0.31152526
55	0x3dc0cb30	0.09413755
56	0x3ea4b8c1	0.32172206
57	0x3e80c7ed	0.2515253
58	0x40254595	2.582372
59	0xbf45fbbc	-0.7733724
60	0x3eab6aac	0.33479822
61	0x3f40c919	0.7530685
62	0x3eaf516b	0.34241804
63	0x3ebe89ca	0.372145
64	0x3f9cf221	1.2261392
65	0xbe6b0d54	-0.22954303
66	0xbffd403b	-1.9785227
67	0x3e7735cd	0.24141617
68	0x3efe1c41	0.4963093
69	0xbf70daa1	-0.940836
70	0xc0065273	-2.0987823
71	0x3e9ab3a5	0.30215183
72	0xbd3311d1	-0.043718163
73	0xbdb74839	-0.08949322
74	0x3f5d136c	0.8635776
75	0x3cf8434f	0.030305533
76	0xbf524678	-0.82138777
77	0xbdba8a73	-0.09108438
78	0x3f554930	0.833148
79	0x3d0ce104	0.03439428
80	0xbe598a0e	-0.2124407
81	0xbf1ef1d1	-0.6208773
82	0xbeb06e18	-0.34458995
83	0x3f30afdb	0.69018334
84	0xbfb5ad33	-1.4193481
85	0xbee25057	-0.4420192
86	0x3f21311c	0.6296556
87	0x3d3560a0	0.044281602
88	0x3ea16fcc	0.31530607
89	0x3ee452af	0.44594333
90	0x3e182a11	0.14859797
91	0xbf7345b7	-0.9502825
92	0xbf18bd40	-0.5966377
93	0x3f937173	1.1518997
94	0x3fab853a	1.3400033
95	0xbdf678a8	-0.12034732
96	0x3e4cc56f	0.1999719
97	0xbf6dfba5	-0.92962104
98	0xbdf96a88	-0.12178522
99	0x3f55de81	0.8354264
100	0x3ca16c9d	0.019705111
101	0x3f01d165	0.50710136
102	0x3eb41818	0.35174632
103	0x3ddbfac4	0.10741189
104	0x3e61dd13	0.2205699
105	0xbdc37347	-0.09543472
106	0x3d71cc30	0.05903262
107	0x3f83e5b3	1.0304474
108	0xc051ace4	-3.2761774
109	0x3e085846	0.13314924
110	0xbfdc5bee	-1.7215555
111	0x4013fca1	2.3122942
112	0x3ea2fbca	0.31832725
113	0x3ee13dc8	0.43992448
114	0x3fb57b00	1.4178162
115	0xbf0fa6ba	-0.5611378
116	0x3db1a42d	0.08673892
117	0xbff0962b	-1.8795828
118	0xbe9e94c6	-0.3097288
119	0xbf2f7b5e	-0.6854762

fc3.bias f4 [5]
0	0x3e3570e4	0.17718846
1	0xbe6d3f0f	-0.23168586
2	0xbd1fac51	-0.038982693
3	0x3db8dd19	0.09026546
4	0x3e4f7e8b	0.20263116
