snake-v4-dqn.pt (torch_old, 3282 bytes, 6 tensors)

fc1.weight f4 [12, 8]
0	0xbe159158	-0.14606225
1	0xbeae0abb	-0.33992562
2	0xbe20bc74	-0.15696889
3	0x3dd1c130	0.10241926
4	0xbe9ad8f7	-0.30243656
5	0xbce089e0	-0.027409494
6	0x3d0029e0	0.031289935
7	0xbeb28d11	-0.3487325
8	0xbdd64b62	-0.10463597
9	0xbe83032b	-0.25588354
10	0xbc579459	-0.013157927
11	0xbcc8658c	-0.024462484
12	0xbe9009fa	-0.28132612
13	0x3e50708c	0.20355433
14	0xbdb8074c	-0.08985767
15	0xbe63c106	-0.22241601
16	0x3da81b91	0.08208383
17	0x3df973b9	0.121802755
18	0xbe992cd5	-0.29917017
19	0xbeb720bf	-0.3576717
20	0x3c1cf9d0	0.009581044
21	0xbe9c5566	-0.30533904
22	0xbeb0368c	-0.34416616
23	0xbc89d94c	-0.016827248
24	0xbe6188ac	-0.22024792
25	0x3dbb379c	0.09141466
26	0xbea470ab	-0.3211721
27	0xbe2b0859	-0.16702403
28	0xbe5b6c35	-0.21427996
29	0x3e5f799e	0.21823737
30	0xbe7a61ba	-0.24451342
31	0x3e672f4e	0.22576639
32	0x3f2e0cb3	0.6798813
33	0x3f04ea60	0.5192013
34	0x3ef46681	0.47734454
35	0x3cd1d915	0.025616208
36	0x3d84703c	0.064667195
37	0x3e910809	0.28326443
38	0x3e58441d	0.21119733
39	0xbd094ac7	-0.03351858
40	0xbda8abef	-0.08235919
41	0xbeb83c65	-0.35983577
42	0x3e2b086d	0.16702433
43	0x3ce7d60d	0.02830031
44	0xbee12263	-0.43971547
45	0x3c2bf576	0.010495534
46	0x3d19861d	0.037481416
47	0xbe3a1310	-0.18171334
48	0xbf00ed8d	-0.50362474
49	0xbf0aae21	-0.5417195
50	0xbe19a695	-0.15004952
51	0x3eba4852	0.363833
52	0xbe514f44	-0.20440394
53	0x3e2a0f46	0.16607389
54	0xbec9fee8	-0.3945229
55	0xbe9336ed	-0.28752843
56	0x3e59a3a0	0.21253824
57	0xbd91ad73	-0.07113161
58	0xbe05a17a	-0.1304988
59	0xbd5fcd4c	-0.054639146
60	0xbe8c16db	-0.27361187
61	0xbe2423dd	-0.16029306
62	0x3e4ba560	0.19887304
63	0xbcfc9f8f	-0.030837802
64	0xbc3e7ce0	-0.011626452
65	0x3d63ea38	0.05564329
66	0xbd79c058	-0.06097445
67	0x3d87cef4	0.0663127
68	0xbdb17fa8	-0.086669266
69	0xbdcb7e70	-0.099362254
70	0xbe85866d	-0.2607912
71	0xbe3b31fc	-0.18280786
72	0x3e11126d	0.14167185
73	0xbdffcfe5	-0.124908246
74	0xbec3c073	-0.38232765
75	0xbdbd54a8	-0.092446625
76	0xbe8573cd	-0.2606491
77	0xbe213e5a	-0.15746441
78	0xbe448e94	-0.19195014
79	0x3e353784	0.17696959
80	0xbdfdc802	-0.12391664
81	0xbea319ff	-0.3185577
82	0xbe0b41a2	-0.13599256
83	0x3edeb050	0.4349389
84	0xbe85e7f1	-0.2615352
85	0x3d397c68	0.04528466
86	0xbefefe24	-0.4980327
87	0xbec77eba	-0.38963872
88	0x3d93b2e3	0.07211854
89	0x3d59392e	0.053033046
90	0x3ec661ca	0.38746482
91	0xbc9090ba	-0.017647136
92	0x3a67212e	0.0008816895
93	0x3e5ab434	0.21357805
94	0x3f0e5097	0.5559172
95	0x3db2e7e8	0.08735639

fc1.bias f4 [12]
0	0xbe9fec95	-0.31235185
1	0xbdcb00e9	-0.09912283
2	0xbe220841	-0.15823461
3	0xbe233e90	-0.15941834
4	0x3f33736f	0.7009801
5	0xbe5472c2	-0.20746902
6	0xbdd39d71	-0.10332764
7	0xbeb27799	-0.3485687
8	0xbe292eb8	-0.16521728
9	0xbd806f15	-0.06271187
10	0xbdc3b1c8	-0.095553935
11	0x3eb35be5	0.35031047

fc2.weight f4 [24, 12]
0	0x3e8b3dc6	0.27195567
1	0x3e7b8190	0.24561143
2	0xbc26709e	-0.010158686
3	0x3da94584	0.08265212
4	0xbe2cdf2b	-0.16882007
5	0x3e1a1247	0.15046035
6	0x3e267293	0.16254644
7	0x3e490243	0.19629769
8	0xbe011de4	-0.12609059
9	0xbc848a14	-0.016179122
10	0x3d858edc	0.06521389
11	0xbdfd09d7	-0.123553924
12	0xbe667d3e	-0.22508714
13	0x3e608002	0.21923831
14	0x3a906014	0.0011014962
15	0xbc74db80	-0.014944911
16	0xbe3b3b23	-0.18284278
17	0x3eae2b8f	0.34017608
18	0x3ce929d8	0.028462335
19	0x3e2e1911	0.1700175
20	0xbdd3f676	-0.10349743
21	0xbbca3d35	-0.006171847
22	0xbe020ff2	-0.12701395
23	0xbe6d5b2c	-0.2317931
24	0xbe0a007d	-0.13476749
25	0x3e81548f	0.25259826
26	0xbd0aaab8	-0.033854216
27	0x3e8425a8	0.2580998
28	0xbe33270a	-0.17495361
29	0xbe894050	-0.2680688
30	0x3e8a6a06	0.27034014
31	0x3d8485a5	0.06470803
32	0xbd5759bc	-0.05257581
33	0xbe28e12a	-0.16492143
34	0x3e5aa9eb	0.21353881
35	0xbe9aceab	-0.302358
36	0xbe29052c	-0.16505879
37	0xbccc93ca	-0.024972815
38	0x3e24dc14	0.16099578
39	0xbda72414	-0.08161178
40	0xbe23da54	-0.16001254
41	0x3e86fc51	0.26364377
42	0x3eccc746	0.39995784
43	0x3dd9a1c9	0.10626561
44	0xbdb27382	-0.087134376
45	0x3e4a08fb	0.19729988
46	0x3ecd5976	0.40107316
47	0xbe934ecb	-0.28771052
48	0xbe8126c7	-0.25224897
49	0x3da23e34	0.079220206
50	0xbe909c50	-0.28244257
51	0xbd94f5f8	-0.07273477
52	0xbe4a49a2	-0.19754651
53	0xbe716d26	-0.23576793
54	0xbdb4cade	-0.08827756
55	0x3dab1140	0.083528996
56	0x3e8d855c	0.27640808
57	0xbb58f500	-0.0033105016
58	0xbe143a23	-0.14475302
59	0xbe28402e	-0.16430733
60	0xbe827257	-0.2547786
61	0xbe36dac6	-0.17856893
62	0x3dab97be	0.08378552
63	0x3d280c30	0.041027248
64	0xbd71672a	-0.058936276
65	0x3e680075	0.22656424
66	0x3f06857d	0.52547437
67	0xbdc6ced8	-0.09707421
68	0x3e680564	0.22658306
69	0xbd2ebe5e	-0.042662017
70	0x3ec20eae	0.37901825
71	0xbc5bad29	-0.013407984
72	0xbdfccbb2	-0.12343539
73	0xbda430e0	-0.08017135
74	0xbe31fa4a	-0.17380634
75	0x3e0a886c	0.13528603
76	0x3eb84c6f	0.35995814
77	0x3ea91b68	0.33028722
78	0xbdc82231	-0.097721465
79	0x3def2b57	0.11678188
80	0x3d5060f0	0.050873697
81	0xbe55bac4	-0.20872027
82	0xbec0fef0	-0.37694502
83	0x3ef29e83	0.4738656
84	0xbe4e688a	-0.20157066
85	0x3e094f10	0.13409066
86	0x3e68472c	0.226834
87	0xbe806a30	-0.25081015
88	0xbe150a97	-0.14554821
89	0xbe64f946	-0.22360715
90	0xbe2854a6	-0.16438541
91	0x3dcb80c8	0.099366724
92	0xbe8ca99b	-0.2747315
93	0xbdae2172	-0.08502473
94	0x3e7494ac	0.23884839
95	0x3e15f3ba	0.14643756
96	0x3e1e8448	0.15480149
97	0xbe541ac1	-0.20713331
98	0xbe2df044	-0.16986185
99	0x3e847e2e	0.25877517
100	0x3d990ca5	0.07473115
101	0x3e201a36	0.15634999
102	0xbe86c235	-0.26320043
103	0xbd840050	-0.06445372
104	0xbe436e5a	-0.19085065
105	0x3e1e7242	0.15473273
106	0xbdb4abd8	-0.08821839
107	0xbd9d1692	-0.076703206
108	0xbda64aa6	-0.08119707
109	0x3df46707	0.119337134
110	0xbc20d764	-0.009816978
111	0x3c9acd50	0.018896729
112	0xbcdc0469	-0.026857572
113	0xbc6e0171	-0.014526711
114	0xbe6022d6	-0.21888289
115	0x3d0a8ebc	0.03382753
116	0x3e7c2fb8	0.24627578
117	0x3d306c08	0.043071777
118	0xbdb70679	-0.089367814
119	0x3e14d30e	0.14533636
120	0xbe25e69e	-0.16201255
121	0xbe35b2ca	-0.17743984
122	0xbd5c4ef6	-0.05378624
123	0x3e6da570	0.2320764
124	0x3eb013a9	0.3439
125	0xbd5d1822	-0.053978093
126	0xbe95171f	-0.29119202
127	0x3e0608d8	0.13089311
128	0xbe706de3	-0.23479418
129	0x3d2c5718	0.042075247
130	0xbd1d1aaa	-0.038355507
131	0x3daa81ed	0.083255626
132	0xbcc97430	-0.024591535
133	0xbda9c922	-0.08290316
134	0x3e26d152	0.16290787
135	0xbe005c93	-0.12535314
136	0xbdb4a48c	-0.08820447
137	0xbe682ad0	-0.22672582
138	0xbe0ffa8b	-0.14060418
139	0xbdb58498	-0.08863181
140	0x3e7ab834	0.2448433
141	0x3d9ea87c	0.077469796
142	0xbee70776	-0.4512288
143	0x3e57a1ff	0.2105789
144	0x3df7f0c4	0.12106469
145	0xbeaef676	-0.3417241
146	0xbd47c1e8	-0.048768908
147	0x3e58493a	0.21121684
148	0xbe5230fb	-0.20526497
149	0x3e8c9c9d	0.27463236
150	0xbd0dad26	-0.034588955
151	0xbe7932a2	-0.24335721
152	0xbdccdca4	-0.10003021
153	0xbe6d6159	-0.23181666
154	0xbe486e28	-0.19573271
155	0xbd81be70	-0.06335151
156	0x3d267cf0	0.040646493
157	0x3e89f9a0	0.2694826
158	0xbe7fcd49	-0.24980654
159	0x3e932d96	0.28745717
160	0xbe20e915	-0.15713914
161	0xbdbb6076	-0.09149258
162	0x3d91e372	0.0712346
163	0x3e2ccf5a	0.16875973
164	0xbdefdc3c	-0.11711928
165	0xbe034f17	-0.12823139
166	0x3e32cd0a	0.17461029
167	0xbddbf56a	-0.107401684
168	0x3d7b9bb0	0.061427772
169	0xbe00274a	-0.12514988
170	0x3c36cf40	0.011157811
171	0xbe4fbafc	-0.20286173
172	0xbbd0cd80	-0.0063721538
173	0xbe7fc002	-0.24975589
174	0xbd2709c4	-0.040780798
175	0xbe867c00	-0.2626648
176	0x3e8417fc	0.2579955
177	0xbcc61370	-0.02417919
178	0xbe725387	-0.23664676
179	0xbe0524e7	-0.13002358
180	0xbe6984ec	-0.22804612
181	0xbe5732ba	-0.21015444
182	0x3df96554	0.1217753
183	0x3e2a49f4	0.16629773
184	0xbd0cfbb8	-0.034419745
185	0xbe69c282	-0.22828105
186	0x3e2ecdc2	0.17070678
187	0x3e6186c8	0.22024071
188	0xbe0b1eac	-0.13585919
189	0xbe0fc362	-0.14039376
190	0x3d8d6aec	0.06905159
191	0xbd92e0ac	-0.07171759
192	0xbd912a20	-0.07088113
193	0xbdf1b568	-0.118021786
194	0xbd91c037	-0.0711674
195	0xbe690830	-0.2275703
196	0xbec0d2ed	-0.37660924
197	0xbe48d38e	-0.19611952
198	0x3bb49cdb	0.0055118627
199	0x3e69bd65	0.22826155
200	0xbb91dd00	-0.004451394
201	0xbdf0cafa	-0.11757465
202	0xbe0b1572	-0.135824
203	0xbe286308	-0.16444027
204	0x3d7b22e0	0.061312556
205	0x3da4e34c	0.08051166
206	0x3d3db120	0.046311498
207	0xbe293e18	-0.16527593
208	0xbe07a701	-0.132473
209	0x3e07fac2	0.1327925
210	0x3e50b4fc	0.2038154
211	0xbe3e621d	-0.18592115
212	0xbe701453	-0.23445253
213	0xbe0027c2	-0.12515166
214	0xbe73302d	-0.23748846
215	0xbb408b80	-0.0029380023
216	0xbdae4e60	-0.085110426
217	0x3d12fcd8	0.03588566
218	0xbcc90a70	-0.02454111
219	0xbc7d0b40	-0.015444577
220	0xbda87a48	-0.08226448
221	0xbe826e20	-0.25474644
222	0x3e48e450	0.19618344
223	0xbe561f1f	-0.2091031
224	0x3d5e6fd8	0.05430588
225	0xbc3b0ec0	-0.011417091
226	0xbe81b9c1	-0.2533703
227	0xbd8538fc	-0.065050095
228	0x3e531f32	0.20617369
229	0xbe87d054	-0.2652613
230	0x3e517f8d	0.20458813
231	0xbe613cb8	-0.21995819
232	0xbeb342b1	-0.3501182
233	0xbe937216	-0.28797978
234	0x3df0bb7e	0.11754511
235	0x3d6ec89a	0.058296777
236	0x3c233240	0.009960711
237	0x3e51027a	0.20411101
238	0x3dcd22c8	0.100163996
239	0xbec26d34	-0.3797394
240	0xbd1b79d8	-0.037957996
241	0xbd0858f1	-0.033287946
242	0x3d7a4a86	0.061106227
243	0xbe373418	-0.17890966
244	0x3e698685	0.22805221
245	0x3d57d48d	0.05269294
246	0x3d00ee50	0.031477273
247	0x3d9ff238	0.078098714
248	0xbbab5140	-0.0052281916
249	0xbe4cd1d3	-0.20001917
250	0xbe118c0f	-0.14213584
251	0xbdb52ba0	-0.088462114
252	0xbe6ca3d2	-0.23109367
253	0xbec1fb66	-0.37887114
254	0x3c97e93f	0.018543838
255	0xbe799a20	-0.243752

fc2.bias f4 [24]
0	0x3e214d2b	0.15752093
1	0x3e462eef	0.19353841
2	0xbe93e392	-0.2888456
3	0xbe72cd8a	-0.2371122
4	0xbe8c993f	-0.27460667
5	0x3d7b4c05	0.061351795
6	0x3e1a58cf	0.1507294
7	0xbe0a2d52	-0.13493851
8	0xbe689194	-0.22711784
9	0x3eb974d7	0.36221954
10	0xbe2bc2aa	-0.16773477
11	0xbe66f3fe	-0.22554013
12	0x3e0290d5	0.12750562
13	0xbda8304d	-0.08212338
14	0xbe8993cc	-0.26870573
15	0xbe1a3870	-0.15060592
16	0x3e12ae00	0.14324188
17	0xbe8c9766	-0.27459258
18	0xbe3e450e	-0.1858103
19	0x3d854b6c	0.06508526
20	0xbe1426bc	-0.14467901
21	0x3e5c05e3	0.2148662
22	0x3e36bead	0.17846175
23	0x3e715581	0.23567773

fc3.weight f4 [5, 24]
0	0x3b52e9c4	0.0032182792
1	0xbc878cc5	-0.016546616
2	0xbd1d9a30	-0.038477123
3	0xbccb0491	-0.02478245
4	0xbd26024c	-0.040529534
5	0xbce86b3a	-0.028371442
6	0x3bfe1755	0.0077542462
7	0xbdce0cb8	-0.1006102
8	0xbdfe79c1	-0.124255665
9	0x3d18aba7	0.037273075
10	0xbd7717b0	-0.060325325
11	0x3c819eea	0.015822846
12	0x3b963392	0.0045837844
13	0x3d986926	0.074419305
14	0xbe21e00e	-0.15808126
15	0x3c8585a0	0.016299069
16	0x3d3d0ce8	0.046154886
17	0xbdf56d4d	-0.11983738
18	0xbad0f500	-0.0015942156
19	0xbda79492	-0.081826344
20	0xbd44acd0	-0.04801637
21	0x3d161f21	0.03665078
22	0xbda416c3	-0.08012154
23	0x3d1cf4f2	0.038319536
24	0x3c74e5e7	0.014947391
25	0x3c4b5ae8	0.01241181
26	0x3dbbb60f	0.09165584
27	0x3d046175	0.032319505
28	0xbe20489c	-0.15652698
29	0xbbe62674	-0.007023627
30	0xbca01ab7	-0.019543989
31	0xbe2c846a	-0.16847387
32	0x3dc06460	0.09394145
33	0xbd95705e	-0.07296823
34	0x3d9c943a	0.076454595
35	0xbe005139	-0.12530984
36	0x3d5820c2	0.052765615
37	0xbb20f59f	-0.0024560464
38	0x3d6e73a0	0.058215737
39	0xbe472f10	-0.19451547
40	0xbccc3858	-0.02492921
41	0xbe26c99e	-0.16287848
42	0x3e01340a	0.12617508
43	0x3d54a25a	0.051912643
44	0x396dcd64	0.00022678595
45	0x3d8f9b11	0.070119984
46	0xbd8a599a	-0.067553714
47	0x3c7e24b7	0.015511683
48	0xbca7a7f3	-0.020465827
49	0x3bfe981a	0.0077695968
50	0xbda3784d	-0.0798193
51	0xbc3c7e65	-0.011504744
52	0x3e4b60d8	0.19861162
53	0x3d0ee71a	0.034888364
54	0x3d37d5fc	0.044881806
55	0xbd558b84	-0.052135006
56	0x3e1bffbd	0.15234275
57	0x3cfd26c3	0.030902272
58	0xbce5597e	-0.027996775
59	0x3d5f8c79	0.054577325
60	0xbe213085	-0.15741165
61	0x3c86a1ea	0.016434629
62	0x3d519ab0	0.051172912
63	0xbda3da74	-0.08000651
64	0x3d00b745	0.03142478
65	0xbdef67f2	-0.11689748
66	0x3e3045a4	0.17214066
67	0x3ce303b9	0.027711736
68	0x3db7d9f1	0.08977116
69	0x3ce30590	0.027712613
70	0xbbc2eb84	-0.005948486
71	0xbc0860dc	-0.008323874
72	0x3db9c129	0.090700455
73	0xbda9c86a	-0.08290179
74	0xbcb53881	-0.02212167
75	0x3c94772e	0.018123236
76	0xbdfcc4c2	-0.12342216
77	0xbd2368a6	-0.039894722
78	0x3abc6b2f	0.0014375205
79	0x3e0f5756	0.1399816
80	0x3d63104a	0.055435456
81	0xbdae9c08	-0.08525854
82	0xbd3a9d8f	-0.045560416
83	0xbcac7f1e	-0.021056708
84	0x3d279c1d	0.040920366
85	0x3d4d7f96	0.050170504
86	0x3e34e226	0.17664394
87	0xbe1e8a56	-0.15482458
88	0x3d1d3c9e	0.038387887
89	0xbd9dd262	-0.07706143
90	0xbe38992e	-0.18027183
91	0xbe3ba933	-0.18326263
92	0xbcac4fd4	-0.021034159
93	0x3d181bac	0.037135765
94	0xbd580a54	-0.052744225
95	0xbd195486	-0.037434123
96	0xbd0b7b06	-0.03405287
97	0x3cc461b7	0.023972375
98	0x3e1a55e3	0.15071826
99	0xbcd62871	-0.02614233
100	0xba595b00	-0.0008291453
101	0x3d1d19ab	0.038354557
102	0xbca49003	-0.020088201
103	0xbdf79374	-0.12088671
104	0xbc6b67f2	-0.014368044
105	0x3d21962b	0.039449852
106	0x3c623987	0.013807661
107	0x3cc4e985	0.024037132
108	0x3ca448ae	0.020054188
109	0x3d4892c2	0.048968084
110	0xbd204f24	-0.039137974
111	0x3d84a130	0.064760566
112	0x3c3b6414	0.011437435
113	0xbe3a5a32	-0.1819847
114	0x3e2ce762	0.1688514
115	0x3d80e210	0.06293118
116	0xbc79d341	-0.015248121
117	0x3d886299	0.06659431
118	0xbd4c4cf7	-0.049878087
119	0xba1e5a49	-0.0006040675

fc3.bias f4 [5]
0	0xbd3e9fbf	-0.046539064
1	0x3e2b8987	0.16751681
2	0x3eb7bab3	0.35884628
3	0xbd9bdc3b	-0.07610365
4	0xbda5056f	-0.08057677
